LeeNet(
  (layer1): Sequential(
    (0): Conv2d(1, 1, kernel_size=(3, 3), stride=(1, 1), padding=(1, 1))
    (1): BatchNorm2d(1, eps=1e-05, momentum=0.1, affine=True, track_running_stats=True)
    (2): Conv2d(1, 6, kernel_size=(3, 3), stride=(1, 1), padding=(1, 1))
    (3): BatchNorm2d(6, eps=1e-05, momentum=0.1, affine=True, track_running_stats=True)
    (4): MaxPool2d(kernel_size=2, stride=2, padding=0, dilation=1, ceil_mode=False)
    (5): ReLU()
  )
  (layer2): Sequential(
    (0): Conv2d(6, 6, kernel_size=(3, 3), stride=(1, 1))
    (1): BatchNorm2d(6, eps=1e-05, momentum=0.1, affine=True, track_running_stats=True)
    (2): Conv2d(6, 16, kernel_size=(3, 3), stride=(1, 1))
    (3): BatchNorm2d(16, eps=1e-05, momentum=0.1, affine=True, track_running_stats=True)
    (4): MaxPool2d(kernel_size=2, stride=2, padding=0, dilation=1, ceil_mode=False)
    (5): ReLU()
  )
  (layer3): Sequential(
    (0): Conv2d(16, 120, kernel_size=(5, 5), stride=(1, 1))
    (1): BatchNorm2d(120, eps=1e-05, momentum=0.1, affine=True, track_running_stats=True)
    (2): ReLU()
    (3): Flatten(start_dim=1, end_dim=-1)
  )
  (fc): Sequential(
    (0): Linear(in_features=120, out_features=168, bias=True)
    (1): BatchNorm1d(168, eps=1e-05, momentum=0.1, affine=True, track_running_stats=True)
    (2): Dropout(p=0.5, inplace=False)
    (3): ReLU()
    (4): Linear(in_features=168, out_features=10, bias=True)
    (5): BatchNorm1d(10, eps=1e-05, momentum=0.1, affine=True, track_running_stats=True)
  )
)